…
[WARNING|modeling_utils.py:3777] 2023-11-30 22:54:05,044 >> Some weights of BertForLabelAttendedSequenceClassification were not initialized from the model checkpoint at microsoft/BiomedNLP-BiomedBERT-base-uncased-abstract-fulltext and are newly initialized: ['classifier.weight', 'classifier.bias']
You should probably TRAIN this model on a down-stream task to be able to use it for predictions and inference.
[WARNING|tokenization_utils_base.py:2687] 2023-11-30 22:54:05,046 >> Asking to pad to max_length but no maximum length is provided and the model has no predefined maximum length. Default to no padding.
11/30/2023 22:54:05 - INFO - __main__ - BertForLabelAttendedSequenceClassification(
  (bert): BertModel(
    (embeddings): BertEmbeddings(
      (word_embeddings): Embedding(30522, 768, padding_idx=0)
      (position_embeddings): Embedding(512, 768)
      (token_type_embeddings): Embedding(2, 768)
      (LayerNorm): LayerNorm((768,), eps=1e-12, elementwise_affine=True)
      (dropout): Dropout(p=0.1, inplace=False)
    )
    (encoder): BertEncoder(
      (layer): ModuleList(
        (0-11): 12 x BertLayer(
          (attention): BertAttention(
            (self): BertSelfAttention(
              (query): Linear(in_features=768, out_features=768, bias=True)
              (key): Linear(in_features=768, out_features=768, bias=True)
              (value): Linear(in_features=768, out_features=768, bias=True)
              (dropout): Dropout(p=0.1, inplace=False)
            )
            (output): BertSelfOutput(
              (dense): Linear(in_features=768, out_features=768, bias=True)
              (LayerNorm): LayerNorm((768,), eps=1e-12, elementwise_affine=True)
              (dropout): Dropout(p=0.1, inplace=False)
            )
          )
          (intermediate): BertIntermediate(
            (dense): Linear(in_features=768, out_features=3072, bias=True)
            (intermediate_act_fn): GELUActivation()
          )
          (output): BertOutput(
            (dense): Linear(in_features=3072, out_features=768, bias=True)
            (LayerNorm): LayerNorm((768,), eps=1e-12, elementwise_affine=True)
            (dropout): Dropout(p=0.1, inplace=False)
          )
        )
      )
    )
    (pooler): BertPooler(
      (dense): Linear(in_features=768, out_features=768, bias=True)
      (activation): Tanh()
    )
  )
  (label_embedding): BertLabelEmbedding()
  (label_embedding_dropout): Dropout(p=0.1, inplace=False)
  (dropout): Dropout(p=0.1, inplace=False)
  (classifier): Linear(in_features=768, out_features=8, bias=True)
)
Running tokenizer on dataset:   0%|          | 0/8005 [00:00<?, ? examples/s]Caching processed dataset at /scratch/taw2/.cache/huggingface/datasets/AshtonIsNotHere___biosift/default-f2c65561e5859cab/0.0.0/0111277fb19b16f696664cde7f0cb90f833dec72db2cc73cfdf87e697f78fe02/cache-41eb36d3ed911b41.arrow
11/30/2023 22:54:05 - INFO - datasets.arrow_dataset - Caching processed dataset at /scratch/taw2/.cache/huggingface/datasets/AshtonIsNotHere___biosift/default-f2c65561e5859cab/0.0.0/0111277fb19b16f696664cde7f0cb90f833dec72db2cc73cfdf87e697f78fe02/cache-41eb36d3ed911b41.arrow
…
